deepRD/noiseSampler/models/model_state.pt (torch, 108732 bytes, 22 tensors)

encoder.0.weight f4 [128, 9]
000000 68 81 e2 bd e5 07 a0 be 56 b6 95 3e 01 72 0d bf
       -0.110598385 -0.31256023 0.29240674 -0.5525208
000010 87 f4 fd be 21 ff 94 3e 40 c0 26 be f6 ff 3b bd
       -0.49600622 0.29100898 -0.16284275 -0.0458984
000020 15 47 98 bc f8 34 68 88 50 3c 68 08 48 35 68 88
       -0.018588582 -6.9877225e-34 6.9885857e-34 -6.987759e-34
000030 f8 37 68 88 60 3a 68 08 f8 37 68 08 f8 37 68 08
       -6.988075e-34 6.988358e-34 6.988075e-34 6.988075e-34
000040 d8 a5 68 08 98 37 68 08 88 9d 68 08 4c 35 68 88
       7.000991e-34 6.988031e-34 7.0000138e-34 -6.987761e-34
000050 48 3e 68 88 98 3a 68 08 8c 34 68 88 80 35 68 88
       -6.988817e-34 6.9883837e-34 -6.987673e-34 -6.987785e-34
000060 20 3e 68 08 68 34 68 88 38 3e 68 08 d7 db aa 3d
       6.988799e-34 -6.9876564e-34 6.98881e-34 0.083427124
000070 48 ce 11 3e 41 1d ae 3e 7f 66 93 be bd 9c 2a be
       0.14238846 0.34006694 -0.28789136 -0.16661353
000080 66 8b 51 be 11 25 1f 3c 9e fe d7 bc 1d dc df 3c
       -0.20463333 0.009713427 -0.026366528 0.027326638
000090 9c 35 68 08 ba a5 68 08 8c dd 53 88 41 a0 68 88
       6.987798e-34 7.000977e-34 -6.375593e-34 -7.000334e-34
0000a0 bc 3c 68 88 5f df 59 88 38 e5 05 88 b6 62 64 87
       -6.9886353e-34 -6.5563634e-34 -4.0292677e-34 -1.7181822e-34
0000b0 d7 44 3d 87 17 83 02 3f e3 6d 69 3e bb 17 92 be
       -1.423901e-34 0.5098128 0.22795825 -0.2853373
0000c0 dd 3e 30 be 73 66 9e be 7e d0 da be f8 a8 99 3d
       -0.1721148 -0.30937538 -0.42737192 0.07502931
0000d0 a2 dd 80 3e c6 ef 64 3e ed 94 6f 3f f4 b6 15 bf
       0.25169092 0.22357091 0.9358662 -0.5848229
0000e0 dc 0b fc bd 4a 63 4e bd b1 77 90 be 39 89 9e bf
       -0.123069495 -0.05038766 -0.28216317 -1.2385627
0000f0 4e c0 e4 3b 2f 32 d5 bc 83 74 b4 3d 09 33 84 3d
       0.0069809323 -0.026024906 0.08811285 0.06455047
000100 ec 0f 16 bf fa 9d 36 3d 54 6d 01 3e 6b 55 64 3e
       -0.58618045 0.044584252 0.12639362 0.2229821
000110 67 c5 7e 3d ad 7f f6 3d 45 16 19 bc 6f 74 07 bd
       0.062199976 0.12036071 -0.009343688 -0.033070024
000120 c6 0a af 3e c7 4e a7 be 22 66 a4 3d 50 1d 82 bf
       0.34187907 -0.3267729 0.08027293 -1.0165195
000130 b1 e1 06 bf 5c 32 7d 3e a2 2a 11 bd 6c 7f cb b8
       -0.5268813 0.24726242 -0.03544105 -9.7035285e-05
000140 f6 67 f2 3c 60 52 62 3e c8 f4 0f 3f 73 36 99 be
       0.029590588 0.22101736 0.5623288 -0.29924354
000150 9e 59 10 bf 81 9b 44 bf 78 7f 55 3e 62 05 08 3d
       -0.56386745 -0.7679978 0.20849407 0.03320826
000160 df 44 95 3c b4 90 36 3c e7 f2 0d be c7 e8 74 3e
       0.018221317 0.011142898 -0.13862191 0.23916923
000170 f3 79 d3 be a5 34 9a be 5b e8 a0 be cc ea 56 3f
       -0.41303977 -0.3011829 -0.31427273 0.8395202
000180 b6 2c be bd d9 2c 35 3d f0 aa cf 3e 88 35 68 08
       -0.09285872 0.044232223 0.40560102 6.9877886e-34
000190 4c 3a 68 88 68 34 68 88 f8 38 68 08 8c 3b 68 88
       -6.988349e-34 -6.9876564e-34 6.9881927e-34 -6.9884957e-34
0001a0 48 3e 68 08 88 3a 68 88 f8 37 68 08 14 38 68 88
       6.988817e-34 -6.9883764e-34 6.988075e-34 -6.988088e-34
0001b0 08 3b 68 08 20 3c 68 08 48 35 68 88 28 39 68 88
       6.988435e-34 6.9885637e-34 -6.987759e-34 -6.9882147e-34
0001c0 f8 37 68 08 8c 38 68 08 48 35 68 88 98 34 68 88
       6.988075e-34 6.988143e-34 -6.987759e-34 -6.9876784e-34
0001d0 98 37 68 88 78 68 8e 3e f8 8a 88 3e 4e 22 fd 3b
       -6.988031e-34 0.27814078 0.26668525 0.0077250367
0001e0 b9 2a cc bd 0f 28 b6 be 0a 18 9b be 92 0f 44 bd
       -0.09969086 -0.35577437 -0.30291778 -0.04786641
0001f0 28 31 d8 3d 95 61 56 3d e8 3a 68 08 98 35 68 88
       0.10556251 0.052339155 6.9884204e-34 -6.987796e-34
000200 28 35 68 88 88 9d 68 08 7c 35 68 88 08 3b 68 08
       -6.9877445e-34 7.0000138e-34 -6.987783e-34 6.988435e-34
000210 f8 37 68 88 e0 34 68 88 30 35 68 88 25 32 06 be
       -6.988075e-34 -6.9877115e-34 -6.987748e-34 -0.13105066
000220 1f 86 14 bf 4f cd 41 3e b7 f3 76 bf 83 5e 94 3c
       -0.5801715 0.18925975 -0.9646563 0.018111473
000230 6a b2 08 3f aa 7f 5d 3d af 0d 49 bd 2c cf d0 bd
       0.5339724 0.054076828 -0.049085315 -0.10195765
000240 53 4f 50 08 3e a4 68 08 3e 78 48 08 ce 36 00 08
       6.268597e-34 7.0008026e-34 6.0326655e-34 3.858302e-34
000250 38 6b bb 87 9e 6f 58 08 28 da 90 07 0b f0 8c 87
       -2.819965e-34 6.513134e-34 2.1794933e-34 -2.1205943e-34
000260 cf cf e3 07 57 c3 5c bf b6 8e a6 be 5c 3b 66 3e
       3.4277303e-34 -0.86235565 -0.32530755 0.22483581
000270 1a f9 07 be a7 bb 85 3e 32 f9 47 3e f6 24 39 3d
       -0.13278618 0.2611973 0.19528654 0.045201264
000280 ab ac ca be 49 0c a4 be 8d 9a 9b 3d cb 46 e3 bd
       -0.3958486 -0.32040623 0.075978376 -0.11097487
000290 40 8f f3 be 6f 0c 1d 3f d5 f0 46 3f 3d 60 c5 3e
       -0.4757023 0.613471 0.7771123 0.38549986
0002a0 d5 c0 9c 3d 0c 62 10 bd 4f a7 37 3e 18 37 68 88
       0.07653967 -0.035249755 0.17934917 -6.9879723e-34
0002b0 f8 34 68 88 88 3a 68 88 f8 38 68 88 48 35 68 88
       -6.9877225e-34 -6.9883764e-34 -6.9881927e-34 -6.987759e-34
0002c0 a8 3b 68 08 68 3e 68 08 88 3b 68 88 60 3c 68 08
       6.9885086e-34 6.988832e-34 -6.988494e-34 6.988593e-34
0002d0 a2 65 83 3e f2 06 78 3f 4a d0 8d be de 19 fd be
       0.25663477 0.968856 -0.27697974 -0.49433798
0002e0 59 c9 0d bf 3a 40 12 be c4 fd 9b bd 9d 9f 09 bc
       -0.5538536 -0.14282313 -0.07616761 -0.008399871
0002f0 fb f0 fa bc 50 3c 68 08 30 39 68 08 60 3c 68 08
       -0.030632487 6.9885857e-34 6.9882184e-34 6.988593e-34
000300 8c 3b 68 08 00 38 68 88 f8 38 68 88 30 35 68 08
       6.9884957e-34 -6.988079e-34 -6.9881927e-34 6.987748e-34
000310 8c 34 68 08 f0 37 68 88 0c 71 65 08 c0 dd 64 88
       6.987673e-34 -6.9880715e-34 6.9045067e-34 -6.887192e-34
000320 44 41 68 88 ed 0c 65 08 9e 37 68 88 a8 6c 65 08
       -6.989168e-34 6.8927375e-34 -6.988034e-34 6.9039906e-34
000330 88 be 61 88 6b 9e 58 88 b2 3b 68 08 0e 8f f9 bd
       -6.7932443e-34 -6.5186355e-34 6.988513e-34 -0.12185489
000340 37 dc e3 3e 2d 48 ba 3e 3b 44 15 bd f1 62 34 be
       0.44503948 0.3638319 -0.036442023 -0.17615868
000350 98 7e b8 be df ff 62 3b 44 41 f5 bc 51 2b 99 3c
       -0.36034083 0.0034637374 -0.029938348 0.018697413
000360 a5 72 46 bf 5a a0 2b be 13 28 3b bf db 40 c6 be
       -0.77518684 -0.16760388 -0.73108023 -0.38721356
000370 88 a2 c9 3e 8e 12 fc bc 15 3f 10 3d 05 ab 03 3d
       0.39381814 -0.030770566 0.03521641 0.03214552
000380 58 8c 52 be f8 f3 cc bd f6 ce 3d 3f 10 24 ad 3d
       -0.2056135 -0.10007471 0.7414392 0.08454144
000390 98 9a ef 3c 21 5f e1 be e6 7b 9c be 83 d3 ad ba
       0.02924852 -0.4401789 -0.30563277 -0.0013261888
0003a0 a8 d7 56 bd 0c 58 b2 3a 1e ae ce 3e 64 e6 31 3f
       -0.05245176 0.0013606562 0.40367216 0.69492173
0003b0 d8 0e b4 bd 95 21 be be 16 1e 2f bd 1b 62 8c 3e
       -0.08791894 -0.37134996 -0.0427533 0.274186
0003c0 73 6c 31 be d3 4a fb ba 52 eb 5a bd 2f 10 33 3c
       -0.17326526 -0.001917208 -0.053447075 0.010929151
0003d0 7b fc bf bf fa 68 b7 3f 9d 9d 86 3d 87 d6 19 3d
       -1.4998926 1.4328911 0.06573031 0.037558105
0003e0 92 4e 23 bd a0 37 33 bc d6 1b de 3b 27 92 80 bc
       -0.039869852 -0.010938555 0.0067782206 -0.01569469
0003f0 34 f4 e4 bd 97 f8 48 bf 4c 72 e6 3e c3 33 18 3f
       -0.111793905 -0.7850432 0.45009077 0.5945398

encoder.0.bias f4 [128]
000000 7c d1 6e 3d 88 3e 68 88 b8 34 68 88 bd 33 a7 3c
       0.05830525 -6.9888466e-34 -6.987693e-34 0.020410413
000010 ac 3e 68 88 f4 6c 48 3c 83 f3 55 ba 11 82 01 3e
       -6.988863e-34 0.012233008 -0.0008161591 0.12647273
000020 67 57 83 3c 5c e1 2e 3d 63 1d fa bd 2c 35 68 88
       0.016032888 0.04269539 -0.12212636 -6.9877464e-34
000030 f8 37 68 88 22 eb cf 3c f8 38 68 88 2f 7c 87 3d
       -6.988075e-34 0.025380675 -6.9881927e-34 0.06615483
000040 a0 38 68 88 45 93 04 bd 8d 49 1a 3d 7c 3a 68 88
       -6.9881523e-34 -0.03236701 0.0376678 -6.988371e-34
000050 18 4c 7b 3d 68 34 68 88 a0 a2 68 88 f7 3c e9 3c
       0.061351866 -6.9876564e-34 -7.0006125e-34 0.028471453
000060 ec a4 c8 bd 68 cf 6c 3d a0 cf 29 3d 2b 63 b6 bb
       -0.09797081 0.057814986 0.041457772 -0.005566021
000070 d1 fd a2 bd 5d 25 0b 3d ae 8b 40 3d b3 42 c8 3d
       -0.07958568 0.03397118 0.04700821 0.09778347
000080 11 df 13 bc 56 ef 8a 3d de 20 97 3d 26 c5 b0 3d
       -0.009025351 0.06783931 0.07379316 0.08631353
000090 44 e7 dc 3d 79 41 2d 3d 4b b9 17 3d 5a 85 32 3d
       0.10786298 0.042298768 0.037041944 0.043584205
0000a0 12 a0 e9 3b 1b 1f a6 3c e4 bb 77 3d 02 ed 82 3d
       0.0071296776 0.020278504 0.06048192 0.06392862
0000b0 f8 37 68 88 de a2 68 88 38 71 57 3d 60 83 35 3d
       -6.988075e-34 -7.000641e-34 0.05259821 0.044314742
0000c0 f8 37 68 88 2c 35 68 88 02 2e 49 3d 0e 7f a4 bd
       -6.988075e-34 -6.9877464e-34 0.049116142 -0.08032046
0000d0 60 3c 68 88 ce aa 35 3d 1c 1c 82 3d 2a 98 52 3d
       -6.988593e-34 0.044352345 0.06353018 0.051414646
0000e0 3c a5 68 88 20 3c 68 88 b5 ae d4 3d c0 7d 5a 3d
       -7.0009193e-34 -6.9885637e-34 0.10384885 0.05334258
0000f0 92 93 0b 3d 3a a7 68 88 ae 2b 85 3d 90 37 68 88
       0.03407628 -7.0011534e-34 0.06502472 -6.9880274e-34
000100 00 3c 68 88 94 34 68 88 24 18 2e bd 80 ad e4 3b
       -6.988549e-34 -6.9876766e-34 -0.04250349 0.0069786906
000110 b1 82 ef 3c 70 1d 3c bc 86 8b ad 3d 78 34 68 88
       0.029237123 -0.011481628 0.084738776 -6.9876637e-34
000120 28 3e 68 88 98 3b 68 88 07 d5 68 3d 1b c7 18 3d
       -6.9888025e-34 -6.9885013e-34 0.056843784 0.037299257
000130 ae 23 4d 3d 75 d7 8d 3d 18 7f 8c 3c 05 6f a3 3c
       0.050082855 0.06925861 0.017150447 0.0199504
000140 f2 a9 51 bd d0 59 7c 3d 16 5b 5c 3c 48 35 68 88
       -0.051187463 0.06160909 0.013449451 -6.987759e-34
000150 dc d0 78 3c ef 7e 5f 3d 9e 0c 96 3d 3d 1c 24 3d
       0.015186515 0.054564413 0.07326625 0.040065993
000160 d9 88 4f 3d f9 9e b0 3c fa de 3f 3d 5c 6a 7b 3d
       0.050667617 0.02156018 0.046843506 0.06138073
000170 2e 55 30 3c 1c 27 73 bd f7 04 e9 bd 94 9b 68 88
       0.010762496 -0.05936347 -0.113779 -6.999784e-34
000180 e6 05 c9 bd a8 cb 2b bd 79 8a cc 3d 68 34 68 88
       -0.09815578 -0.04194227 0.09987349 -6.9876564e-34
000190 80 59 cb bc 40 1e 36 3d 68 3e 68 88 22 37 0f 3d
       -0.02482295 0.044462442 -6.988832e-34 0.034964688
0001a0 98 99 54 3d 20 91 65 3c f4 07 2b bd a4 9e 68 88
       0.05190429 0.014011651 -0.04175563 -7.000144e-34
0001b0 15 7d 8c bd f3 12 83 3d 89 11 45 3c f2 ea 41 bd
       -0.06859795 0.06400099 0.0120281065 -0.047343202
0001c0 f7 2e c5 3c af da dd 3c 87 58 a8 3d 28 3e 68 88
       0.024070246 0.027081816 0.0822001 -6.9888025e-34
0001d0 45 9e af bd b4 8c 3b 3d a0 b5 07 3d 75 29 2e 3c
       -0.085751094 0.04578848 0.033132195 0.010630001
0001e0 30 9e 32 bb a8 34 68 88 88 3e 68 88 08 a1 68 88
       -0.0027254932 -6.9876858e-34 -6.9888466e-34 -7.000425e-34
0001f0 bd 11 10 3d cb 22 bf 3d 5c 3f 68 88 2b 54 3d 3d
       0.035173167 0.09332808 -6.988944e-34 0.046222847

encoder.2.weight f4 [64, 128]
000000 6f 3a 68 08 30 35 68 88 7c 35 68 88 22 9e 68 88
       6.988365e-34 -6.987748e-34 -6.987783e-34 -7.0000845e-34
000010 f8 37 68 88 f7 6c 64 08 d3 b3 63 88 16 52 ba 07
       -6.988075e-34 6.873934e-34 -6.852171e-34 2.8034415e-34
000020 c5 25 67 08 66 a3 68 88 44 a3 68 88 20 3e 68 88
       6.955843e-34 -7.0007034e-34 -7.000688e-34 -6.988799e-34
000030 20 3e 68 88 3c 29 cf 07 20 34 68 88 3a ff 48 08
       -6.988799e-34 3.1170134e-34 -6.9876233e-34 6.048533e-34
000040 00 38 68 88 e8 6c 4b 08 c6 9f 68 88 f8 37 68 08
       -6.988079e-34 6.121611e-34 -7.0002773e-34 6.988075e-34
000050 7c a7 68 88 f8 34 68 08 08 3b 68 88 be e5 c9 07
       -7.0011837e-34 6.9877225e-34 -6.988435e-34 3.037815e-34
000060 54 a6 68 08 b3 69 b1 07 e9 6d 23 08 0c 9f 68 08
       7.001048e-34 2.6694124e-34 4.9180227e-34 7.000192e-34
000070 58 a9 68 08 c7 5c 1c 08 e0 9f 68 88 2e a6 68 88
       7.0014023e-34 4.70536e-34 -7.0002893e-34 -7.0010304e-34
000080 0e 1f 5c 88 70 a6 68 88 a2 a1 68 88 44 9f 68 88
       -6.6240346e-34 -7.0010607e-34 -7.000496e-34 -7.0002176e-34
000090 70 1c 61 08 36 a3 68 88 db be 58 88 4b 21 e4 07
       6.7741903e-34 -7.0006814e-34 -6.5224485e-34 3.4325195e-34
0000a0 d6 a4 68 88 3c a6 68 88 6c 10 16 08 2c 37 68 08
       -7.0008724e-34 -7.001037e-34 4.5158287e-34 6.9879815e-34
0000b0 3c 35 68 88 10 34 68 08 49 a8 36 08 57 43 62 88
       -6.9877537e-34 6.987616e-34 5.496645e-34 -6.808856e-34
0000c0 64 a2 68 08 08 3e 68 08 5f ec 63 08 52 a0 68 88
       7.000585e-34 6.988788e-34 6.858818e-34 -7.0003416e-34
0000d0 88 3a 68 88 c0 a4 68 88 c8 46 67 88 94 34 68 08
       -6.9883764e-34 -7.0008623e-34 -6.9597237e-34 6.9876766e-34
0000e0 98 35 68 08 90 37 68 08 72 a2 68 88 1c 0b 52 08
       6.987796e-34 6.9880274e-34 -7.0005914e-34 6.3207635e-34
0000f0 4c e7 15 08 88 3a 68 88 f4 a3 00 08 2c 39 68 08
       4.5109945e-34 -6.9883764e-34 3.8711325e-34 6.9882166e-34
000100 44 a0 68 08 94 a0 68 88 90 bd 5c 88 e7 b0 3b 08
       7.000335e-34 -7.000372e-34 -6.642667e-34 5.6481213e-34
000110 8b 12 1c 08 1d 6e 61 08 cc b8 42 08 08 3b 68 88
       4.696634e-34 6.783791e-34 5.859698e-34 -6.988435e-34
000120 24 35 68 88 6c 3e 68 88 d1 ec 67 08 5c 9f 68 08
       -6.9877427e-34 -6.9888337e-34 6.979241e-34 7.0002287e-34
000130 7c fd 2c 08 1f 29 54 08 3e c7 e6 07 64 a3 68 88
       5.2057337e-34 6.3844767e-34 3.4723658e-34 -7.0007025e-34
000140 b4 b9 47 08 77 7b b5 07 2c 9f 68 88 8c 3a 68 08
       6.0102677e-34 2.730642e-34 -7.0002066e-34 6.988378e-34
000150 7e 9e 68 08 b2 1c 2b 08 2a 9d 68 88 d8 9f 68 88
       7.0001267e-34 5.149217e-34 -6.9999706e-34 -7.0002856e-34
000160 76 a2 68 88 e6 9e 68 88 ad eb 50 08 d8 9f 68 88
       -7.0005932e-34 -7.0001745e-34 6.286976e-34 -7.0002856e-34
000170 4e a2 68 88 a5 4c 53 08 78 a0 68 08 64 a0 68 08
       -7.000575e-34 6.35856e-34 7.000359e-34 7.00035e-34
000180 b5 31 63 88 13 a3 68 08 5a ec 63 08 20 34 68 08
       -6.836876e-34 7.0006653e-34 6.8588158e-34 6.9876233e-34
000190 68 bd 5d 88 78 72 ba 07 48 35 68 88 c7 cf 67 88
       -6.6727414e-34 2.8053448e-34 -6.987759e-34 -6.9758275e-34
0001a0 fb 55 68 88 10 9f 68 88 0c e2 53 08 ec 34 68 08
       -6.991603e-34 -7.0001938e-34 6.376122e-34 6.987717e-34
0001b0 f0 34 68 88 44 9e 68 88 ac 9e 68 88 6e ab 67 08
       -6.987719e-34 -7.0001e-34 -7.000148e-34 6.971555e-34
0001c0 76 d8 66 88 84 c6 54 08 1e a6 68 88 00 35 68 88
       -6.9467556e-34 6.4029783e-34 -7.001023e-34 -6.987726e-34
0001d0 20 3e 68 88 94 5d 64 08 59 51 29 08 f6 9f 68 88
       -6.988799e-34 6.8721255e-34 5.095221e-34 -7.0002994e-34
0001e0 22 05 55 88 0c 37 68 08 24 35 68 88 18 3e 68 08
       -6.410339e-34 6.987967e-34 -6.9877427e-34 6.988795e-34
0001f0 88 9f 68 88 04 a3 68 88 18 35 68 08 04 a6 68 88
       -7.000249e-34 -7.0006584e-34 6.987737e-34 -7.001011e-34
000200 28 3e 68 88 48 3c 68 08 58 35 68 88 0c 3b 68 08
       -6.9888025e-34 6.988582e-34 -6.9877666e-34 6.988437e-34
000210 68 34 68 08 d4 a5 68 88 6c 34 68 08 30 35 68 08
       6.9876564e-34 -7.000989e-34 6.987658e-34 6.987748e-34
000220 3c 39 68 88 70 34 68 88 98 37 68 08 2c 35 68 88
       -6.988224e-34 -6.98766e-34 6.988031e-34 -6.9877464e-34
000230 48 35 68 08 28 34 68 08 38 39 68 08 48 35 68 88
       6.987759e-34 6.987627e-34 6.988222e-34 -6.987759e-34
000240 2c 39 68 08 9c 34 68 08 18 3e 68 88 88 35 68 08
       6.9882166e-34 6.9876803e-34 -6.988795e-34 6.9877886e-34
000250 88 3a 68 88 f0 38 68 88 98 34 68 08 08 3b 68 88
       -6.9883764e-34 -6.988189e-34 6.9876784e-34 -6.988435e-34
000260 f8 38 68 08 88 3b 68 88 2c 35 68 08 e8 99 68 88
       6.9881927e-34 -6.988494e-34 6.9877464e-34 -6.9995876e-34
000270 48 3c 68 88 38 35 68 08 fc 37 68 88 f0 34 68 88
       -6.988582e-34 6.987752e-34 -6.988077e-34 -6.987719e-34
000280 68 9a 68 08 00 38 68 88 3c 35 68 08 20 3e 68 88
       6.9996464e-34 -6.988079e-34 6.9877537e-34 -6.988799e-34
000290 28 35 68 88 44 a0 68 08 e0 3b 68 88 68 9a 68 88
       -6.9877445e-34 7.000335e-34 -6.9885343e-34 -6.9996464e-34
0002a0 90 34 68 08 90 3b 68 08 88 3a 68 88 58 35 68 88
       6.9876747e-34 6.9884976e-34 -6.9883764e-34 -6.9877666e-34
0002b0 38 39 68 08 e4 34 68 08 10 37 68 88 20 34 68 88
       6.988222e-34 6.9877133e-34 -6.9879686e-34 -6.9876233e-34
0002c0 f0 34 68 08 38 a0 68 88 28 3e 68 88 88 9d 68 88
       6.987719e-34 -7.0003297e-34 -6.9888025e-34 -7.0000138e-34
0002d0 0c 35 68 88 18 35 68 88 ec 34 68 88 80 3a 68 08
       -6.9877317e-34 -6.987737e-34 -6.987717e-34 6.9883727e-34
0002e0 08 3b 68 88 20 34 68 88 d4 a6 68 88 58 35 68 88
       -6.988435e-34 -6.9876233e-34 -7.0011066e-34 -6.9877666e-34
0002f0 18 3e 68 08 50 3c 68 08 f0 34 68 88 90 3a 68 08
       6.988795e-34 6.9885857e-34 -6.987719e-34 6.98838e-34
000300 88 35 68 88 18 3e 68 08 f8 3a 68 08 44 a0 68 08
       -6.9877886e-34 6.988795e-34 6.988428e-34 7.000335e-34
000310 e8 38 68 88 78 3e 68 88 68 34 68 08 e0 34 68 08
       -6.9881853e-34 -6.988839e-34 6.9876564e-34 6.9877115e-34
000320 0c 3e 68 08 58 97 68 08 2c 39 68 88 60 3c 68 08
       6.9887896e-34 6.9992864e-34 -6.9882166e-34 6.988593e-34
000330 ec 3b 68 88 28 3e 68 88 38 39 68 08 38 39 68 88
       -6.98854e-34 -6.9888025e-34 6.988222e-34 -6.988222e-34
000340 20 34 68 88 e0 3b 68 88 38 35 68 08 9c 37 68 08
       -6.9876233e-34 -6.9885343e-34 6.987752e-34 6.988033e-34
000350 44 a0 68 88 80 3a 68 08 44 a0 68 88 24 35 68 88
       -7.000335e-34 6.9883727e-34 -7.000335e-34 -6.9877427e-34
000360 8c 3a 68 88 0c 3b 68 88 88 9d 68 08 fc 37 68 88
       -6.988378e-34 -6.988437e-34 7.0000138e-34 -6.988077e-34
000370 90 3e 68 08 3c 35 68 08 8c 38 68 08 4c 35 68 88
       6.9888502e-34 6.9877537e-34 6.988143e-34 -6.987761e-34
000380 2c 3e 68 08 6c 9f 68 08 68 9d 68 08 00 39 68 08
       6.9888043e-34 7.000236e-34 6.999999e-34 6.9881964e-34
000390 0c 3b 68 88 08 3b 68 88 f8 34 68 08 88 35 68 08
       -6.988437e-34 -6.988435e-34 6.9877225e-34 6.9877886e-34
0003a0 e8 34 68 08 68 34 68 88 18 35 68 08 2c a7 68 08
       6.987715e-34 -6.9876564e-34 6.987737e-34 7.001147e-34
0003b0 20 3e 68 88 44 a3 68 88 f8 38 68 08 58 35 68 08
       -6.988799e-34 -7.000688e-34 6.9881927e-34 6.9877666e-34
0003c0 78 3e 68 88 78 a4 68 08 20 34 68 88 10 3b 68 88
       -6.988839e-34 7.0008293e-34 -6.9876233e-34 -6.988439e-34
0003d0 88 3b 68 08 3c 39 68 08 30 35 68 88 f8 34 68 08
       6.988494e-34 6.988224e-34 -6.987748e-34 6.9877225e-34
0003e0 2c 38 68 08 38 39 68 88 08 3b 68 88 44 a3 68 08
       6.988099e-34 -6.988222e-34 -6.988435e-34 7.000688e-34
0003f0 60 3c 68 08 08 3b 68 08 8c 34 68 88 78 3a 68 08
       6.988593e-34 6.988435e-34 -6.987673e-34 6.988369e-34

encoder.2.bias f4 [64]
000000 d0 3b 68 88 10 3b 68 88 5e c6 d7 3d 50 3c 68 88
       -6.988527e-34 -6.988439e-34 0.105358824 -6.9885857e-34
000010 43 4a 86 3c f0 34 68 88 06 a8 68 88 e3 bf 81 bc
       0.016392833 -6.987719e-34 -7.001247e-34 -0.015838569
000020 f9 7a 55 3d 5a 98 39 3d f2 e4 e4 bd 88 3a 68 88
       0.05211923 0.04531131 -0.1117648 -6.9883764e-34
000030 38 38 68 88 4c 36 68 88 9c 7d fe bc e8 37 68 88
       -6.9881045e-34 -6.9878786e-34 -0.031065755 -6.988068e-34
000040 f0 35 68 88 3b aa 44 3d de 55 1b 3d 83 ac 27 3e
       -6.9878364e-34 0.048013907 0.037923686 0.16374402
000050 38 a6 68 88 f9 99 39 bc 88 3a 68 88 18 35 68 88
       -7.001035e-34 -0.011328214 -6.9883764e-34 -6.987737e-34
000060 30 35 68 88 f8 37 68 88 28 6e bc 3c f0 34 68 88
       -6.987748e-34 -6.988075e-34 0.023001745 -6.987719e-34
000070 80 3f 68 88 4c 35 68 88 18 34 68 88 75 1c 92 3d
       -6.9889604e-34 -6.987761e-34 -6.9876196e-34 0.07134334
000080 d8 9d 68 88 35 d6 95 3d 99 50 96 bd 69 e1 a4 bb
       -7.0000505e-34 0.073162474 -0.073395915 -0.005031754
000090 8e 1f aa 3c 18 80 a9 bc 88 3a 68 88 68 c3 3e 3d
       0.020767 -0.020690963 -6.9883764e-34 0.046573073
0000a0 31 1a 17 3e a0 c3 1d 3c d4 db 68 88 00 97 68 88
       0.14756085 0.00962916 -7.0073367e-34 -6.999246e-34
0000b0 00 39 68 88 3f e0 c7 3d 24 83 18 bd 88 3a 68 88
       -6.9881964e-34 0.097595684 -0.03723444 -6.9883764e-34
0000c0 b3 e8 57 bd b2 43 a9 3d f0 34 68 88 30 fa c8 bd
       -0.052712154 0.08264865 -6.987719e-34 -0.098133445
0000d0 2c 35 68 88 b1 ae 0e bd 3c d4 70 3d 43 a9 91 3c
       -6.9877464e-34 -0.034834567 0.058796152 0.017780906
0000e0 8c b7 40 3d 9b 58 26 3d b2 22 5c 87 05 39 b6 bc
       0.047050044 0.040611845 -1.6561156e-34 -0.022243986
0000f0 a4 39 68 88 2b 7e f8 3d 53 21 06 bc 4b 94 43 bd
       -6.9882717e-34 0.1213344 -0.008186656 -0.047748845

encoder.4.weight f4 [40, 64]
000000 2c 35 68 88 60 3c 68 08 4b a0 68 88 f8 37 68 08
       -6.9877464e-34 6.988593e-34 -7.0003384e-34 6.988075e-34
000010 d9 7a 5a 08 00 35 68 08 e8 34 68 88 fe a2 68 88
       6.5746395e-34 6.987726e-34 -6.987715e-34 -7.0006557e-34
000020 d5 a2 68 88 87 a5 68 88 00 4c 30 08 8c 34 68 08
       -7.000637e-34 -7.0009537e-34 5.305241e-34 6.987673e-34
000030 2c 3e 68 88 20 34 68 88 a4 cd 1e 08 9c 34 68 88
       -6.9888043e-34 -6.9876233e-34 4.7788125e-34 -6.9876803e-34
000040 f0 38 68 88 00 aa 68 88 4c 35 68 88 07 9d 36 08
       -6.988189e-34 -7.0014795e-34 -6.987761e-34 5.4953218e-34
000050 80 3b 68 08 29 a0 68 88 58 97 68 08 98 37 68 88
       6.9884902e-34 -7.000323e-34 6.9992864e-34 -6.988031e-34
000060 30 39 68 08 44 a3 68 88 32 ad 4f 08 e0 3b 68 88
       6.9882184e-34 -7.000688e-34 6.2495387e-34 -6.9885343e-34
000070 20 35 68 08 80 3e 68 88 f8 3b 68 88 38 a3 68 88
       6.987741e-34 -6.988843e-34 -6.9885453e-34 -7.0006823e-34
000080 f8 37 68 08 e3 ec 65 88 9b 9f 68 88 83 aa 68 88
       6.988075e-34 -6.919064e-34 -7.0002576e-34 -7.0015396e-34
000090 74 2e 3e 08 6c e0 5b 08 00 38 68 08 0f eb de 07
       5.723065e-34 6.616672e-34 6.988079e-34 3.3541002e-34
0000a0 2d a3 68 88 66 a0 68 88 d4 a0 68 88 30 35 68 08
       -7.0006773e-34 -7.000351e-34 -7.0004013e-34 6.987748e-34
0000b0 40 35 68 88 b1 9f 68 88 30 3e 68 88 28 3e 68 88
       -6.9877556e-34 -7.0002677e-34 -6.988806e-34 -6.9888025e-34
0000c0 45 20 27 08 74 a5 f5 07 1c 37 68 08 17 a0 68 88
       5.0292667e-34 3.6960747e-34 6.987974e-34 -7.0003145e-34
0000d0 00 39 68 08 2c 39 68 08 b2 6a 68 88 e8 a3 68 88
       6.9881964e-34 6.9882166e-34 -6.994038e-34 -7.000763e-34
0000e0 fe 62 24 08 7b 55 07 08 88 3e 68 88 8d af 10 08
       4.946832e-34 4.0725567e-34 -6.9888466e-34 4.3539783e-34
0000f0 20 3e 68 08 b4 30 14 08 46 a1 68 88 e3 a9 68 88
       6.988799e-34 4.459438e-34 -7.0004536e-34 -7.001466e-34
000100 9d 4a 8d 07 58 39 68 08 b8 4c 16 3e 88 3b 68 88
       2.1259176e-34 6.988237e-34 0.14677703 -6.988494e-34
000110 28 64 3a 3d 98 37 68 88 04 38 68 88 fe 8b 69 3e
       0.045505673 -6.988031e-34 -6.9880807e-34 0.22807309
000120 bd 61 34 bd be 15 49 3e 48 bb 46 3e 14 38 68 88
       -0.044038523 0.196372 0.1940738 -6.988088e-34
000130 40 3d 68 88 88 3b 68 08 b3 4c 42 3e f0 37 68 88
       -6.988696e-34 6.988494e-34 0.18974571 -6.9880715e-34
000140 7f 16 32 07 24 f7 1d bd 8c e9 a2 3e 56 2e e3 3c
       1.3397843e-34 -0.03856577 0.31818807 0.027732056
000150 08 3b 68 08 07 ce 4e 3e 50 3c 68 88 68 3c 68 08
       6.988435e-34 0.2019578 -6.9885857e-34 6.9885968e-34
000160 f8 34 68 08 f8 37 68 08 24 a5 58 be 94 a0 68 88
       6.9877225e-34 6.988075e-34 -0.21156746 -7.000372e-34
000170 47 a0 68 88 28 3e 68 08 eb f7 68 08 f0 a5 bb be
       -7.0003366e-34 6.9888025e-34 7.0106387e-34 -0.36650038
000180 99 3c 68 88 c0 1d cf 3c 49 d3 8e 3e f9 c3 1d 3e
       -6.9886193e-34 0.02528274 0.27895573 0.15406789
000190 99 47 b2 3e f7 4d 53 3e 88 9d 68 08 83 bd de 3d
       0.3482025 0.2063521 7.0000138e-34 0.1087599
0001a0 99 eb de 3d 0d 60 b1 3d e0 6f 67 08 94 d2 68 88
       0.108847804 0.08660898 6.9645542e-34 -7.0062494e-34
0001b0 08 9f 68 88 b9 9e a7 be 25 5e 85 3e 2c 35 68 08
       -7.00019e-34 -0.32738283 0.2604839 6.9877464e-34
0001c0 68 4b 19 3d 43 75 00 3d 30 34 68 08 50 a6 8b 3e
       0.03742543 0.03136183 6.9876307e-34 0.27275324
0001d0 38 35 68 88 42 5c 7f 3e 34 e1 4a 3e 65 1c e7 3d
       -6.987752e-34 0.24937537 0.1981247 0.11284713
0001e0 c6 0c 8e be 19 b9 45 3c f0 6e 66 08 d2 4a 5f 3b
       -0.2774412 0.0120680565 6.9343514e-34 0.0034071696
0001f0 52 25 65 08 28 ac 86 bc b1 07 3e 3e 0d 01 12 bd
       6.895605e-34 -0.016439512 0.18557622 -0.035645533
000200 20 35 68 08 38 39 68 88 88 3a 68 08 60 3c 68 08
       6.987741e-34 -6.988222e-34 6.9883764e-34 6.988593e-34
000210 00 38 68 88 00 39 68 88 d4 a0 68 08 4c 35 68 88
       -6.988079e-34 -6.9881964e-34 7.0004013e-34 -6.987761e-34
000220 2c 39 68 88 f8 34 68 88 28 3e 68 88 70 34 68 88
       -6.9882166e-34 -6.9877225e-34 -6.9888025e-34 -6.98766e-34
000230 9c 34 68 88 38 39 68 08 38 35 68 08 30 35 68 08
       -6.9876803e-34 6.988222e-34 6.987752e-34 6.987748e-34
000240 50 3c 68 88 1c 3e 68 08 98 37 68 88 1c 37 68 08
       -6.9885857e-34 6.988797e-34 -6.988031e-34 6.987974e-34
000250 08 3b 68 88 28 3e 68 08 2c 34 68 08 08 38 68 88
       -6.988435e-34 6.9888025e-34 6.987629e-34 -6.9880825e-34
000260 ec 3b 68 88 b4 9f 68 88 f8 37 68 88 38 39 68 08
       -6.98854e-34 -7.000269e-34 -6.988075e-34 6.988222e-34
000270 f8 37 68 08 28 3e 68 88 f8 34 68 08 88 3a 68 08
       6.988075e-34 -6.9888025e-34 6.9877225e-34 6.9883764e-34
000280 20 3e 68 08 f8 34 68 88 10 3b 68 88 28 3e 68 88
       6.988799e-34 -6.9877225e-34 -6.988439e-34 -6.9888025e-34
000290 68 34 68 08 1c 35 68 08 08 3b 68 88 f0 37 68 88
       6.9876564e-34 6.987739e-34 -6.988435e-34 -6.9880715e-34
0002a0 90 34 68 88 48 35 68 08 f8 37 68 08 18 35 68 08
       -6.9876747e-34 6.987759e-34 6.988075e-34 6.987737e-34
0002b0 fc 34 68 08 88 3a 68 88 9c 37 68 88 28 38 68 88
       6.9877243e-34 -6.9883764e-34 -6.988033e-34 -6.988097e-34
0002c0 f8 34 68 08 98 37 68 88 2c 38 68 88 54 a6 68 88
       6.9877225e-34 -6.988031e-34 -6.988099e-34 -7.001048e-34
0002d0 50 3c 68 08 08 3b 68 88 9c 37 68 88 2c 39 68 88
       6.9885857e-34 -6.988435e-34 -6.988033e-34 -6.9882166e-34
0002e0 08 3b 68 88 64 a2 68 08 68 a3 68 08 88 3b 68 08
       -6.988435e-34 7.000585e-34 7.0007044e-34 6.988494e-34
0002f0 f8 37 68 08 e4 a3 68 08 2c 38 68 88 f8 34 68 08
       6.988075e-34 7.0007613e-34 -6.988099e-34 6.9877225e-34
000300 0c a5 68 88 f8 37 68 08 01 1b c4 be 80 3c 68 08
       -7.000897e-34 6.988075e-34 -0.38301852 6.988608e-34
000310 72 0e 98 be 88 3d 68 08 00 61 67 08 28 59 6c be
       -0.2969852 6.988729e-34 6.9628057e-34 -0.23080885
000320 1e ec 55 bf f6 55 47 be fb f0 43 3e a8 3b 68 08
       -0.8356341 -0.19466385 0.19134896 6.9885086e-34
000330 a2 9f 68 08 18 3d 68 88 02 50 9f bd 5c 3e 68 08
       7.000261e-34 -6.9886776e-34 -0.07778932 6.9888264e-34
000340 be 1f c0 07 ef 6e fe 3e 9e d2 48 bf bb 5c c2 3d
       2.8907606e-34 0.4969401 -0.78446376 0.09490343
000350 40 3e 68 88 c1 9c 63 3e 2c 35 68 08 28 35 68 08
       -6.9888135e-34 0.22227766 6.9877464e-34 6.9877445e-34
000360 f8 37 68 88 48 35 68 08 77 63 9f be 90 3d 68 88
       -6.988075e-34 6.987759e-34 -0.31130573 -6.9887327e-34
000370 40 34 68 08 f8 37 68 88 10 83 68 08 74 3c 0c 3f
       6.987638e-34 -6.988075e-34 6.9969024e-34 0.54779744
000380 b0 a7 68 08 f0 72 89 3e 37 5c 36 3e 91 dc 90 3d
       7.0012076e-34 0.26845503 0.17808615 0.0707332
000390 6d 7a ff bd dd 93 2e bf 20 34 68 88 ed d8 0a bd
       -0.12474523 -0.6819437 -6.9876233e-34 -0.033898283
0003a0 95 a5 90 3e 96 a3 38 3e 88 3e 68 88 f8 37 68 88
       0.2825133 0.18031153 -6.9888466e-34 -6.988075e-34
0003b0 a2 c4 30 88 72 df 62 3e 76 a8 89 3d 98 35 68 08
       -5.3194214e-34 0.2215555 0.067215845 6.987796e-34
0003c0 dc 54 29 3d 5a 6e 02 3e 48 35 68 88 22 4a 09 3e
       0.041340694 0.12737408 -6.987759e-34 0.13407186
0003d0 58 3c 68 88 d6 09 3b 3e 38 df 81 3e f6 b1 62 ba
       -6.9885894e-34 0.18265471 0.25365615 -0.0008647734
0003e0 56 2e 8d 3e 04 f7 fb 3e d8 a6 66 88 d4 0f 1b 3e
       0.27574414 0.49211895 -6.940923e-34 0.15142757
0003f0 64 a2 68 88 96 28 ae 3e 98 8e aa bd 2a 8a a5 be
       -7.000585e-34 0.3401534 -0.08327979 -0.32331973

encoder.4.bias f4 [40]
000000 32 a7 68 88 0c 8a 98 3d f8 37 68 88 1b 19 c3 3d
       -7.0011498e-34 0.07448205 -6.988075e-34 0.09526273
000010 70 a3 05 be a9 3e 14 be d1 3c 8d bd 4c 36 68 88
       -0.13050628 -0.14477028 -0.068963654 -6.9878786e-34
000020 6f ac 30 bd f8 34 68 88 36 d5 55 3c 3a b9 d2 3c
       -0.043133195 -6.9877225e-34 0.013051322 0.025723089
000030 83 8b ca 3d 94 d0 ef 3d c4 a3 68 88 2c 35 68 88
       0.09889891 0.11709705 -7.0007466e-34 -6.9877464e-34
000040 fb 18 05 3d 08 3b 68 88 f8 34 68 88 9b 08 4e 3d
       0.032494526 -6.988435e-34 -6.9877225e-34 0.050301176
000050 34 9f 68 88 72 83 8a 3e db 11 aa bd 80 3a 68 88
       -7.0002103e-34 0.2705341 -0.08304187 -6.9883727e-34
000060 48 3b 68 88 9f 2c be bc f6 a2 68 88 a4 72 11 3e
       -6.9884645e-34 -0.023214636 -7.000652e-34 0.14203888
000070 88 35 68 88 58 34 68 88 18 38 68 88 80 3b 68 88
       -6.9877886e-34 -6.987649e-34 -6.98809e-34 -6.9884902e-34
000080 39 8f 18 3f f8 3b 68 88 2e 2b aa 3d 14 67 22 bd
       0.5959354 -6.9885453e-34 0.08309017 -0.039649084
000090 f8 3b 68 88 ea 9a a2 3e 9c 34 68 88 ea ec c6 3e
       -6.9885453e-34 0.31758815 -6.9876803e-34 0.38852626

encoder.6.weight f4 [20, 40]
000000 f8 37 68 88 f0 3b 68 08 08 3b 68 88 2c 35 68 88
       -6.988075e-34 6.9885417e-34 -6.988435e-34 -6.9877464e-34
000010 fc 33 68 08 a0 34 68 08 68 34 68 88 78 3a 68 88
       6.987607e-34 6.987682e-34 -6.9876564e-34 -6.988369e-34
000020 18 37 68 08 28 3e 68 88 4c 35 68 88 f8 37 68 88
       6.9879723e-34 -6.9888025e-34 -6.987761e-34 -6.988075e-34
000030 b8 34 68 88 f8 38 68 08 80 3b 68 08 98 37 68 08
       -6.987693e-34 6.9881927e-34 6.9884902e-34 6.988031e-34
000040 30 34 68 88 18 37 68 08 08 3b 68 08 58 35 68 88
       -6.9876307e-34 6.9879723e-34 6.988435e-34 -6.9877666e-34
000050 98 37 68 08 20 34 68 88 d8 37 68 08 08 3b 68 88
       6.988031e-34 -6.9876233e-34 6.9880604e-34 -6.988435e-34
000060 9c 37 68 88 08 3b 68 88 2c 3e 68 08 f8 34 68 88
       -6.988033e-34 -6.988435e-34 6.9888043e-34 -6.9877225e-34
000070 7c 3a 68 08 08 3b 68 88 ac a7 68 08 7c 97 68 08
       6.988371e-34 -6.988435e-34 7.001206e-34 6.999303e-34
000080 f8 37 68 88 38 39 68 08 4c 35 68 08 d8 3b 68 88
       -6.988075e-34 6.988222e-34 6.987761e-34 -6.9885306e-34
000090 3c 38 68 88 98 37 68 88 58 35 68 08 98 36 68 88
       -6.9881064e-34 -6.988031e-34 6.9877666e-34 -6.9879135e-34
0000a0 c0 eb 63 08 82 42 bf 3e b8 3b 68 08 dd 98 d0 3e
       6.858745e-34 0.3735543 6.988516e-34 0.40741625
0000b0 4a 5d 6b 3e 14 87 50 3f 7c 03 e5 bd 88 3b 68 88
       0.22984806 0.8145611 -0.11182305 -6.988494e-34
0000c0 10 ca 4b 3f e0 3b 68 08 5f b2 59 3e 0b 8f 68 3d
       0.796052 6.9885343e-34 0.2125945 0.05677704
0000d0 4b 9a 12 3f d3 3b b9 3d ac f3 65 88 50 38 68 88
       0.5726668 0.09044614 -6.9198616e-34 -6.9881156e-34
0000e0 81 16 db bd 60 3c 68 88 a8 38 68 08 95 0b d1 3e
       -0.10697652 -6.988593e-34 6.988156e-34 0.4082915
0000f0 f8 37 68 88 0c 9e ad 3e df f3 1c 3d e8 37 68 08
       -6.988075e-34 0.33909643 0.03831851 6.988068e-34
000100 51 84 c1 87 5e 42 cb 3e 04 88 63 88 0b fe 80 bf
       -2.911718e-34 0.39699072 -6.8470213e-34 -1.0077528
000110 2c 35 68 08 e4 9e 68 88 e0 3a 68 08 18 37 68 88
       6.9877464e-34 -7.0001736e-34 6.988417e-34 -6.9879723e-34
000120 31 43 49 be 88 3e 68 08 da 29 bf bd 72 dd 24 bd
       -0.19654538 6.9888466e-34 -0.093341544 -0.04025025
000130 3c 3b 68 08 cd 35 99 3e e8 37 68 08 51 84 00 3f
       6.988459e-34 0.2992386 6.988068e-34 0.502019
000140 68 35 68 08 ee 9f 68 88 88 3a 68 08 f8 36 68 88
       6.987774e-34 -7.0002957e-34 6.9883764e-34 -6.9879576e-34
000150 18 36 68 88 a9 4b 65 08 f8 36 68 88 98 37 68 88
       -6.9878547e-34 6.900112e-34 -6.9879576e-34 -6.988031e-34
000160 2c ec 68 88 30 35 68 08 f0 e0 68 88 25 47 65 08
       -7.009258e-34 6.987748e-34 -7.0079373e-34 6.899581e-34
000170 4d a6 68 88 5c be 68 88 e4 34 68 08 b8 37 68 88
       -7.0010446e-34 -7.0038727e-34 6.9877133e-34 -6.9880458e-34
000180 40 9d 65 08 00 35 68 88 48 35 68 08 40 aa 68 88
       6.9097027e-34 -6.987726e-34 6.987759e-34 -7.001509e-34
000190 44 a3 68 88 28 a4 62 08 34 1a 66 08 f8 37 68 08
       -7.000688e-34 6.8202366e-34 6.924391e-34 6.988075e-34
0001a0 80 3e 68 08 ed 70 62 08 88 3a 68 08 0c 3c 68 88
       6.988843e-34 6.8142145e-34 6.9883764e-34 -6.9885545e-34
0001b0 28 3e 68 08 88 3b 68 88 0c 35 68 88 50 3c 68 08
       6.9888025e-34 -6.988494e-34 -6.9877317e-34 6.9885857e-34
0001c0 a3 a0 68 88 78 96 68 88 d0 37 68 88 3c 3a 68 88
       -7.000379e-34 -6.9991836e-34 -6.988057e-34 -6.9883415e-34
0001d0 94 a0 68 88 b4 a3 68 88 50 3c 68 08 4d fe 60 08
       -7.000372e-34 -7.0007393e-34 6.9885857e-34 6.7706477e-34
0001e0 c0 1b 66 08 77 57 ba bd f8 34 68 08 f1 74 75 be
       6.9245727e-34 -0.09098714 6.9877225e-34 -0.23970391
0001f0 e3 22 97 3e 2e 73 3f 3d 62 4c b1 3e e8 37 68 88
       0.29518804 0.046740703 0.34628588 -6.988068e-34
000200 d7 5c 07 bf 6c 3e 68 08 b5 1b 14 3d ad 93 8e 3e
       -0.5287604 6.9888337e-34 0.036159236 0.27847043
000210 7d 49 47 3e c4 06 15 3f 40 1e 67 88 e0 3b 68 88
       0.19461627 0.5821345 -6.9549593e-34 -6.9885343e-34
000220 86 2f 04 3f 88 3d 68 88 28 3e 68 88 1c 5b 77 be
       0.51635015 -6.988729e-34 -6.9888025e-34 -0.24155849
000230 60 d5 66 88 ba bd a5 3e e6 b3 61 3e 3c 35 68 08
       -6.946393e-34 0.32371312 0.22041282 6.9877537e-34
000240 4e 75 0d 86 48 a9 8f be 74 fa 63 08 9a d5 2a bf
       -2.6605334e-35 -0.2805884 6.8604734e-34 -0.6673218
000250 8c 37 68 88 08 3b 68 08 97 51 47 07 ac 38 68 08
       -6.9880256e-34 6.988435e-34 1.4995073e-34 6.988158e-34
000260 1c bb 1c 3f 90 3a 68 08 ea 3d e7 3e ef e3 62 3f
       0.61223006 6.98838e-34 0.45164424 0.8862905
000270 3c 3b 68 88 24 68 65 bc f8 34 68 08 de 41 17 3e
       -6.988459e-34 -0.01400188 6.9877225e-34 0.1477122
000280 e0 a9 68 08 15 a5 01 bd 8c 38 68 88 a1 41 07 3f
       7.0014648e-34 -0.031651575 -6.988143e-34 0.52834517
000290 41 86 e0 3a ab 6f 2f bf ae b1 f3 3c 84 a1 68 88
       0.0017129855 -0.68529767 0.02974781 -7.000482e-34
0002a0 74 2c 32 be f8 37 68 88 bd 4e d3 bd b2 18 9a be
       -0.1739977 -6.988075e-34 -0.103177525 -0.30096966
0002b0 5c 7e 42 3e c8 e1 55 3e fc e3 65 08 38 39 68 08
       0.18993515 0.2088691 6.9180175e-34 6.988222e-34
0002c0 c3 3d 9a 3e 20 34 68 08 88 3c 68 88 01 a4 b6 be
       0.30125245 6.9876233e-34 -6.9886115e-34 -0.35672
0002d0 f0 37 68 08 4e 44 92 3e ee 9a 8c be 08 3b 68 88
       6.9880715e-34 0.28567737 -0.27461952 -6.988435e-34
0002e0 63 5e b2 07 ed 02 be be f3 d4 63 08 b7 04 9a 3f
       2.6837939e-34 -0.37111607 6.856065e-34 1.2032689
0002f0 2c 35 68 08 00 38 68 88 e0 3e 68 88 8c 37 68 08
       6.9877464e-34 -6.988079e-34 -6.988887e-34 6.9880256e-34
000300 83 eb 65 3f f8 38 68 08 03 ae e5 3e dd 34 42 bd
       0.8981249 6.9881927e-34 0.44859323 -0.047413696
000310 ec 39 68 88 6f 7f 4b 3e 14 38 68 08 ce f5 85 3e
       -6.9883047e-34 0.19872831 6.988088e-34 0.26164097
000320 0c 37 68 88 08 3b 68 88 50 3c 68 88 6c 3e 68 88
       -6.987967e-34 -6.988435e-34 -6.9885857e-34 -6.9888337e-34
000330 3c 36 68 88 20 35 68 88 60 3c 68 88 20 34 68 88
       -6.9878713e-34 -6.987741e-34 -6.988593e-34 -6.9876233e-34
000340 30 3e 68 88 68 3c 68 88 60 3c 68 88 48 3e 68 88
       -6.988806e-34 -6.9885968e-34 -6.988593e-34 -6.988817e-34
000350 9c 34 68 88 6c 3e 68 88 2c 34 68 88 88 3e 68 88
       -6.9876803e-34 -6.9888337e-34 -6.987629e-34 -6.9888466e-34
000360 d8 34 68 88 9c 37 68 88 00 3b 68 08 2c 39 68 88
       -6.987708e-34 -6.988033e-34 6.9884315e-34 -6.9882166e-34
000370 2c 39 68 88 98 37 68 88 48 35 68 88 28 3e 68 88
       -6.9882166e-34 -6.988031e-34 -6.987759e-34 -6.9888025e-34
000380 e0 34 68 88 8c 3e 68 88 f0 37 68 88 98 35 68 88
       -6.9877115e-34 -6.9888484e-34 -6.9880715e-34 -6.987796e-34
000390 dc 3b 68 08 f8 34 68 08 08 38 68 08 9c 34 68 88
       6.9885325e-34 6.9877225e-34 6.9880825e-34 -6.9876803e-34
0003a0 18 37 68 88 68 34 68 88 f8 37 68 88 38 39 68 88
       -6.9879723e-34 -6.9876564e-34 -6.988075e-34 -6.988222e-34
0003b0 18 3e 68 08 f8 37 68 08 9c 37 68 88 48 39 68 88
       6.988795e-34 6.988075e-34 -6.988033e-34 -6.9882294e-34
0003c0 98 37 68 08 a8 9b 68 88 e4 a2 68 88 83 25 ec 07
       6.988031e-34 -6.9997934e-34 -7.0006437e-34 3.553138e-34
0003d0 e1 7b f2 07 bc a5 68 88 cc 2e 21 08 50 3c 68 08
       3.6484922e-34 -7.000978e-34 4.8504185e-34 6.9885857e-34
0003e0 35 6d 3f 08 28 3e 68 08 e0 9d 68 88 a4 a0 68 88
       5.7605344e-34 6.9888025e-34 -7.000054e-34 -7.0003793e-34
0003f0 ba a0 68 88 3a 9f 68 88 e4 a2 68 08 18 3e 68 88
       -7.0003894e-34 -7.000213e-34 7.0006437e-34 -6.988795e-34

encoder.6.bias f4 [20]
000000 78 34 68 08 ca 4a fb 3c d1 01 61 08 98 c8 4c bd
       6.9876637e-34 0.03067531 6.771061e-34 -0.04999599
000010 d6 10 07 3f 08 3e 68 88 58 85 37 84 17 c5 ce bd
       0.52760065 -6.988788e-34 -2.1572775e-36 -0.10096186
000020 0c 38 68 88 c2 02 bb 3e 2c 39 68 88 f0 34 68 08
       -6.9880843e-34 0.36525542 -6.9882166e-34 6.987719e-34
000030 8c 35 68 88 cc 3b 68 88 ad c5 75 bd a9 d1 de bc
       -6.9877905e-34 -6.988525e-34 -0.06000297 -0.027199583
000040 68 9e 68 88 98 34 68 88 88 35 68 88 18 37 68 88
       -7.0001166e-34 -6.9876784e-34 -6.9877886e-34 -6.9879723e-34

decoder.0.weight f4 [20, 8]
000000 45 ff 69 3e 18 f8 a9 3d 7c c7 fa 3e 0f e5 8a bf
       0.22851284 0.08299273 0.4898032 -1.0851153
000010 ca 2a 83 3d 27 5b e2 3e a5 1b db be e3 4b 67 3d
       0.06404646 0.4421017 -0.4279453 0.056468856
000020 24 fa 8e bd 1d 0e b3 bd 9b c4 b5 3f 5c ab 40 3f
       -0.06981304 -0.08742926 1.4200624 0.75261474
000030 b1 ca d5 bf 97 df 9e be cf 42 3c be a4 4e 9d bd
       -1.6702482 -0.3102996 -0.1838486 -0.07681015
000040 ee cd 57 be a6 5d 84 bd 8d fb 65 bf b7 7a 2b 3f
       -0.2107465 -0.064631745 -0.8983696 0.66984123
000050 95 63 8d 3f 29 77 90 3e 96 63 09 be 35 11 99 3c
       1.1046015 0.28215912 -0.13416895 0.018684963
000060 47 5c 05 bd 4d de ff bc ae 94 0a 40 05 4c c0 bf
       -0.032558706 -0.031233931 2.1653247 -1.5023199
000070 66 2e 24 bf 6d a8 de 3d 13 b5 8d bb 3a 97 19 bc
       -0.641333 0.108719684 -0.0043245642 -0.009374434
000080 53 c5 f5 3d 58 75 2d 3d 88 69 a9 3e 84 d8 20 3b
       0.12000527 0.042348236 0.33088326 0.0024543116
000090 c3 3b 2b bf 0f 85 36 be 4b 2e 95 3d 34 d2 1c bc
       -0.66888064 -0.17824195 0.0728422 -0.009571601
0000a0 a1 5a 3d 3c b1 b9 f7 bc b6 a5 07 c0 92 af 9e 3e
       0.011557252 -0.030239912 -2.1194892 0.30993325
0000b0 02 91 95 bf c8 e0 4d be cb d4 85 be 3b bf 23 3e
       -1.1684878 -0.20105278 -0.2613891 0.15990917
0000c0 ca 73 7c bd af 4e 3a 3c bc 7d 37 40 17 7c 0a be
       -0.061633863 0.011371299 2.8670492 -0.13523899
0000d0 7a 3b 91 3f 6c d0 b8 bc 57 56 61 3d 2b 3d 38 3e
       1.1346276 -0.02256032 0.05501398 0.17992084
0000e0 4f 3c c0 3c fe 80 79 bc 2c ff 2c bf 16 c6 8a 3f
       0.023466257 -0.015228508 -0.6757686 1.0841701
0000f0 bb 5a 1a c0 1b 91 3c 3e 1a 01 f8 bd 91 78 d5 3e
       -2.4117877 0.18414728 -0.12109585 0.41693547
000100 7f af 31 3d b0 6e 89 bd 16 83 80 bf 80 2f 7c 3d
       0.043380257 -0.06710565 -1.0040004 0.061568737
000110 0e 32 27 40 0f 71 71 3e 66 57 a5 3d e9 fe 96 3e
       2.61243 0.23578285 0.080733106 0.29491356
000120 ff 71 4b bd 2c fe 18 bc 68 d1 e5 be 1d 32 9b 3e
       -0.049669262 -0.009337943 -0.44886327 0.3031167
000130 6f c3 2b 40 79 86 29 be 8e b3 8c be ad 50 07 3e
       2.6838033 -0.16555203 -0.2748074 0.13214369
000140 3c 31 95 bd b5 d1 cd bd e0 26 0c be fd 18 6a 3f
       -0.07284781 -0.10049764 -0.13686705 0.9144438
000150 5a 95 5e 3f 99 14 4b be 48 7e af 3e 30 27 00 3e
       0.8694664 -0.19832076 0.34276032 0.12514949
000160 93 2c 8d bd 14 06 bc bc 1c f8 b9 3e 0b 8e 90 3f
       -0.068932675 -0.022952117 0.36322105 1.1293348
000170 17 09 e1 bf ab 2e a4 3d b5 b1 0d be 14 52 82 3e
       -1.7580899 0.08016714 -0.13837321 0.25453246
000180 44 80 8e bd 7c dc 41 bd c3 c8 1d c0 be 2a 13 3c
       -0.069580585 -0.04732941 -2.4653785 0.0089823585
000190 b1 5d 6c bf cf f6 2b be 52 7f 92 3e f1 56 a7 be
       -0.9233046 -0.16793369 0.28612763 -0.3268352
0001a0 5b 93 9d 3c d2 65 56 bd 5f a7 0c 40 b4 c8 c3 3e
       0.019235304 -0.052343197 2.1977155 0.38239062
0001b0 b7 69 33 3f cc 88 f3 bd f1 a6 d8 bd 7a 76 13 3d
       0.70083183 -0.11891326 -0.105787165 0.03600166
0001c0 49 ae a6 96 c0 61 3b 16 c2 e2 24 16 80 36 5a 97
       -2.6928736e-25 1.5136584e-25 1.3319367e-25 -7.050839e-25
0001d0 cf b6 8e 96 d6 d1 9b 97 90 e7 04 98 f0 8d 1d 97
       -2.3056706e-25 -1.006961e-24 -1.717751e-24 -5.0908586e-25
0001e0 02 72 a9 bc 54 e3 47 bd ad 87 f5 be bd 4b 5e c0
       -0.020684246 -0.04880078 -0.47955075 -3.4733727
0001f0 ba e3 0c bf 87 ce 09 3d c3 4d 30 3d 8f 49 1b 3e
       -0.55034983 0.033644225 0.04304291 0.15164779
000200 5e 56 2d bd 3d 06 c5 bc 8a d3 a1 3f b9 51 34 40
       -0.042318694 -0.024050826 1.2642682 2.817488
000210 b5 17 2a bf 8f cc fa 3d 5d 8d 31 3d 5c 31 4b bc
       -0.66442424 0.12246048 0.043347705 -0.012401905
000220 49 a5 97 3d c9 9f c8 3d 6f 64 c8 bf 97 69 49 bf
       0.074045725 0.097961016 -1.565565 -0.7867674
000230 f9 7a e1 3f 69 2c 96 3e 7d d9 48 3e 7a a5 a5 3d
       1.7615653 0.29330757 0.19614215 0.08088203
000240 66 63 01 be e9 a3 df 3d 67 90 6d 3f 42 4d 43 3f
       -0.12635574 0.10919935 0.92798465 0.7628976
000250 7e 18 5a 3e 50 a3 95 be 65 0e 0d 3e f0 e9 9e bd
       0.21298406 -0.2922616 0.13775022 -0.07759464
000260 48 35 68 08 32 66 38 09 1c 38 68 08 40 f5 7f 08
       6.987759e-34 2.2196246e-33 6.9880917e-34 7.702456e-34
000270 18 35 68 88 50 3c 68 08 38 28 ce 88 88 3a 68 08
       -6.987737e-34 6.9885857e-34 -1.2407629e-33 6.9883764e-34

decoder.0.bias f4 [20]
000000 0a 94 63 be c4 84 bd 3d 78 1b 2e 3c 62 2f 61 3e
       -0.22224441 0.09253839 0.010626666 0.21990731
000010 e0 62 b0 bb a5 3c 18 3e 57 94 99 3e 0d e4 82 3e
       -0.0053828806 0.14866884 0.29995987 0.25564614
000020 75 f5 9b 3e 24 0d 9c 3e 23 1b 45 3e bb 17 6d 3e
       0.30460706 0.30478776 0.19248633 0.23153584
000030 a7 45 b2 3d 76 22 4c 3e fd ce 45 98 10 cd 89 3e
       0.087046914 0.19935021 -2.5566156e-24 0.26914263
000040 f0 1a 40 3e 7d ca ce bd 15 d8 19 be 55 68 cb 8a
       0.18760276 -0.10097215 -0.15023835 -1.9587434e-32

decoder.2.weight f4 [40, 20]
000000 cc 38 68 88 88 35 68 88 18 37 68 08 60 3c 68 88
       -6.9881725e-34 -6.9877886e-34 6.9879723e-34 -6.988593e-34
000010 78 38 68 88 f8 38 68 88 f8 37 68 88 18 36 68 88
       -6.988134e-34 -6.9881927e-34 -6.988075e-34 -6.9878547e-34
000020 98 37 68 88 08 3d 68 88 18 38 68 88 2c 39 68 88
       -6.988031e-34 -6.9886702e-34 -6.98809e-34 -6.9882166e-34
000030 f8 33 68 88 f8 37 68 88 18 3e 68 88 2c 39 68 88
       -6.987605e-34 -6.988075e-34 -6.988795e-34 -6.9882166e-34
000040 cc 38 68 88 f8 37 68 88 38 39 68 88 60 3c 68 88
       -6.9881725e-34 -6.988075e-34 -6.988222e-34 -6.988593e-34
000050 c1 4d ac be aa e2 a6 bd 42 a9 99 3d d9 03 6b bd
       -0.33653072 -0.081487015 0.075029865 -0.057376716
000060 a9 cc 1c 3e c1 0f 51 3e 79 79 b7 bd 34 6f f6 3d
       0.15312447 0.20416166 -0.08958716 0.12032929
000070 32 0d 7f bd d3 5e 46 bc 64 e3 b6 bd db c2 cb 3c
       -0.062268443 -0.012107569 -0.0893009 0.024873188
000080 68 44 1e 3e ac ad b9 be c1 a1 40 98 b5 41 da 3e
       0.15455782 -0.36265314 -2.4897083e-24 0.42628255
000090 62 6d d9 be 99 20 b8 3b bd 34 93 3e 88 3a 68 88
       -0.42466265 0.0056191203 0.28751174 -6.9883764e-34
0000a0 df 54 c5 3c 56 51 76 3e 9f 16 5a be bf cd 88 3e
       0.024088321 0.24054465 -0.21297692 0.26719472
0000b0 b2 ef cb 3e 00 81 e2 be d7 df 88 3e 7e 70 a3 3d
       0.3983131 -0.44239044 0.26733276 0.079804406
0000c0 82 e6 2b bd 0b 4c 23 3d ec 9c 39 be 27 7d 57 3e
       -0.041967876 0.039867442 -0.18126267 0.21043836
0000d0 6b c7 47 be 53 57 c3 3e 3b 11 b6 17 be 5d 81 be
       -0.19509666 0.3815256 1.1765824e-24 -0.25266832
0000e0 fe 1e e5 3e 02 d2 0d be 84 4d 25 3e e0 ef b6 88
       0.44750208 -0.13849643 0.16142851 -1.1010121e-33
0000f0 5a 82 14 3e ba 93 b7 bd b0 69 6f 3d 29 f9 34 3e
       0.1450285 -0.089637235 0.0584504 0.17673172
000100 4d 5b 99 bd 68 0e 5a be c4 d1 92 3e e5 e7 d7 bc
       -0.07488117 -0.21294558 0.28675663 -0.026355693
000110 d9 fa 54 be 24 27 7f be f1 f4 bc 3d 3f e0 16 3e
       -0.20798816 -0.24917275 0.09226406 0.1473398
000120 d2 f9 21 3d aa 64 9e bd 3c 58 e5 95 14 e0 39 3e
       0.039544888 -0.07734044 -9.263157e-26 0.18151885
000130 e3 ce f6 bd cb 6f 07 bf 10 bc d0 bd 28 39 8d 08
       -0.12051179 -0.5290496 -0.1019212 8.499566e-34
000140 51 e9 96 bc 61 c9 59 3a 70 47 14 3e a3 4d 4e be
       -0.0184218 0.0008307901 0.14480376 -0.20146804
000150 28 f7 d0 3d 06 93 7f 3e 0a b0 22 3e ce 2c 6a 3e
       0.10203391 0.24958429 0.15887466 0.22868654
000160 8f 69 38 3e c0 5b ad bb 0c 47 07 3e e3 89 9b 3e
       0.18009017 -0.0052904785 0.13210696 0.30378637
000170 25 3f 1e bd 0d e5 6c be 77 8b 5c 97 2a 53 17 bc
       -0.038634438 -0.23134251 -7.1261863e-25 -0.009236136
000180 21 fb 86 3e 71 64 66 3e 36 15 2e be e4 2c ba 89
       0.2636347 0.22499253 -0.17000279 -4.4820086e-33
000190 2c 35 68 88 f8 7f 41 08 3b 2d 3a 08 ec a8 68 88
       -6.9877464e-34 5.822925e-34 5.6025507e-34 -7.0013527e-34
0001a0 98 37 68 08 56 a7 68 88 e8 a5 68 88 58 a2 68 88
       6.988031e-34 -7.0011663e-34 -7.0009982e-34 -7.0005795e-34
0001b0 fb 9f 5a 08 4a a9 68 88 88 a5 68 88 3d 18 39 08
       6.5790045e-34 -7.001396e-34 -7.000954e-34 5.5699904e-34
0001c0 25 b2 43 08 11 a3 68 88 3c 38 68 08 25 9b 50 08
       5.8890086e-34 -7.0006644e-34 6.9881064e-34 6.2775095e-34
0001d0 16 2d 43 08 2c 39 68 08 20 35 68 88 6c 34 68 08
       5.8733676e-34 6.9882166e-34 -6.987741e-34 6.987658e-34
0001e0 87 73 7f 3d 60 09 4a 3d 88 1e a5 bd 89 2d 6e 3d
       0.062366035 0.049325347 -0.08062464 0.058148894
0001f0 20 17 e9 3d a2 45 d1 3d f1 a9 a7 be 01 29 0e be
       0.11381364 0.102183595 -0.32746843 -0.13882829
000200 b3 96 7e bd bb a3 2b be 10 c5 5e 3e 73 b3 a0 bd
       -0.062155437 -0.16761677 0.21754861 -0.07846727
000210 0d 0f 1b 3e 1a cf ce be 78 c0 64 98 8f 12 09 3f
       0.1514246 -0.4039238 -2.9565481e-24 0.53543943
000220 02 9c 55 be 60 56 a3 be 18 03 3d 3e b6 3b a4 09
       -0.20860294 -0.31901836 0.18458211 3.9537716e-33
000230 dd 58 d5 bd e5 05 d6 be 76 80 87 3e 64 17 67 bd
       -0.1041734 -0.41801372 0.26465195 -0.05641879
000240 fd d0 aa bd f5 20 40 be 68 de c0 3d da cb 32 bd
       -0.083406426 -0.18762572 0.094174206 -0.04365144
000250 d4 3e 60 3e 67 83 e5 3d 2b c1 41 be ca 74 a1 bd
       0.21898967 0.11206704 -0.18921344 -0.07883604
000260 70 35 1b 3e 59 59 83 3e 75 82 4e 97 b8 04 ca bd
       0.15157104 0.25654104 -6.672685e-25 -0.09864181
000270 b1 55 06 3d 85 fa d9 3e 99 fe 18 be 12 3e 31 0a
       0.032796565 0.42573944 -0.14940871 8.533914e-33
000280 6f 29 7f bd f8 45 3e 3e 5a ee 9f 3d 88 7d 95 3e
       -0.062295374 0.18581378 0.07809134 0.29197335
000290 86 bf 5c bc b1 c9 1e bd b2 cd 4d 3e 87 04 ba bd
       -0.013473397 -0.038766567 0.20097998 -0.09082895
0002a0 00 a7 e3 bd cf 3c 0e be af 28 43 3d 48 12 21 be
       -0.11115837 -0.13890384 0.04764622 -0.1572963
0002b0 20 6a 6a be 8a c5 be bc 05 8f 56 97 f2 46 cb 3e
       -0.22892046 -0.023287553 -6.9327645e-25 0.39702564
0002c0 99 0b 3a be fe 7d 35 be 42 e7 be 3d c8 19 84 89
       -0.18168487 -0.17723843 0.09321453 -3.180209e-33
0002d0 08 3b 68 88 2c 35 68 88 68 38 68 88 0c 38 68 88
       -6.988435e-34 -6.9877464e-34 -6.9881266e-34 -6.9880843e-34
0002e0 88 3a 68 08 88 3c 68 88 88 3e 68 88 b8 3c 68 88
       6.9883764e-34 -6.9886115e-34 -6.9888466e-34 -6.9886335e-34
0002f0 f8 37 68 88 78 34 68 88 00 3d 68 88 f8 33 68 88
       -6.988075e-34 -6.9876637e-34 -6.9886666e-34 -6.987605e-34
000300 28 3e 68 88 08 3b 68 88 2c 39 68 08 68 38 68 88
       -6.9888025e-34 -6.988435e-34 6.9882166e-34 -6.9881266e-34
000310 28 3e 68 88 98 37 68 88 18 35 68 08 2c 39 68 08
       -6.9888025e-34 -6.988031e-34 6.987737e-34 6.9882166e-34
000320 fe 97 6b 3e 31 a5 21 3e f5 cd a0 bd d9 97 9c 3e
       0.23007199 0.15785672 -0.07851783 0.305846
000330 7f 18 32 3e d8 a0 8c 3e cb b3 31 be 29 41 b9 bd
       0.17392157 0.27466464 -0.17353742 -0.090456314
000340 cb 79 e7 be a0 65 b0 be a8 35 de bd 7c cd 92 3e
       -0.45210108 -0.34452534 -0.10850078 0.28672397
000350 69 74 b9 be 2d 81 4d be 07 19 81 96 55 11 ea 3e
       -0.36221626 -0.20068808 -2.0856869e-25 0.45716348
000360 9e 28 4f 3d c8 d1 54 3e b4 07 0f 3e a2 54 a5 09
       0.050575845 0.2078315 0.13967782 3.9801893e-33
000370 c0 77 73 be 5f b8 f1 3d a6 4c 15 be b0 2d 1e 3c
       -0.2377615 0.11802744 -0.1458002 0.009654447
000380 fd 42 84 bd 46 51 3c 3d 77 6d 6c 3e f3 c0 3f be
       -0.064580895 0.045975946 0.23088633 -0.18725948
000390 fc 27 91 3e 78 4d 6f 3e b1 6e 58 be 41 04 ea 3d
       0.28350818 0.23369396 -0.21135975 0.114265926
0003a0 11 d8 f9 be 02 02 03 3e d1 6a 43 97 f1 4d 5d 3e
       -0.48797658 0.12793735 -6.314272e-25 0.21611764
0003b0 c4 ee 0d be 1a 9a 21 3e eb da 13 3c ac 63 9a 09
       -0.13860613 0.15781441 0.009024362 3.7167882e-33
0003c0 6e 2f d2 bd f3 a4 ad bd 78 b5 3f bd 41 ae 3d 3e
       -0.10262953 -0.08478727 -0.04680392 0.18523504
0003d0 31 cc 97 3e d5 61 cb bd 67 73 03 3c 1e 8a 30 be
       0.29647973 -0.09930769 0.0080231195 -0.17240188
0003e0 cf d4 50 3e d3 e9 8d be 5d 90 a3 3e 5e 9e 6b be
       0.2039368 -0.27717456 0.31946078 -0.23009631
0003f0 0e c2 04 3e 94 0c 68 bc 9e 62 d5 16 38 34 82 3e
       0.12964651 -0.014163155 3.4474242e-25 0.25430465

decoder.2.bias f4 [40]
000000 80 3c 68 88 00 19 b8 3d fb 02 55 be 6b d4 dd 3d
       -6.988608e-34 0.08989143 -0.20801918 0.10831531
000010 13 4a 28 be f4 9e 68 88 57 b8 5a 3e 8b 3c 88 3d
       -0.16434507 -7.000181e-34 0.21359383 0.06652173
000020 1d e4 3c 3e 18 37 68 88 5c 09 24 3e 85 47 2d bb
       0.18446393 -6.9879723e-34 0.16019195 -0.0026440334
000030 95 3a ee 3c b8 8d 21 3d 22 64 b6 bd 88 68 39 3e
       0.029080668 0.039441794 -0.089058176 0.18106282
000040 c9 e4 25 3e b3 29 13 be 7f 48 7f 3e bf 8f 7f 3d
       0.16200556 -0.14371376 0.24929999 0.062392946
000050 8c 3d 68 88 b1 7d c9 3d 1c 3d 68 88 c8 9b c9 bc
       -6.988731e-34 0.09838427 -6.9886794e-34 -0.024610415
000060 50 3c 68 88 a5 bf 05 3e a8 82 3d 3e e7 58 5f 3e
       -6.9885857e-34 0.13061388 0.18506873 0.21811257
000070 28 3b 68 88 28 3e 68 88 6b 81 6c be 0c 3d 68 88
       -6.98845e-34 -6.9888025e-34 -0.23096244 -6.988672e-34
000080 08 c7 b1 bd 9d 4e 20 bc 98 3e 40 3d dc 38 68 88
       -0.0868054 -0.009784368 0.046934694 -6.98818e-34
000090 f9 be 1f 3d 79 65 20 3e cf ca 2d 3e 2f 2d 80 3d
       0.039000485 0.15663709 0.16971897 0.06258618
